Generative-Model/Generator.ckpt (torch, 991767 bytes, 6 tensors)

model.0.weight f4 [128, 100]
0.113174915 -0.013855391 -0.105955616 -0.09825258 0.28313568 0.054525696 -0.096245304 0.01643571
-0.2470341 0.18836921 0.35144365 -0.003759949 -0.16460064 -0.02078719 0.3347317 -0.11833294
0.060339186 0.038487293 0.0538605 0.087442234 0.32513845 -0.17196815 -0.05297085 -0.43092194
0.10540445 0.14252856 0.16471513 -0.061332256 -0.1840573 -0.1685063 0.23533225 -0.20769064
0.19373539 0.3796573 -0.36808118 0.12050172 0.31086734 0.51009774 -0.018753344 -0.124880314
0.011978107 -0.04908013 0.10667852 -9.96117e-06 0.26062116 -0.22275682 0.09405828 0.058278874
-0.1397345 0.06811707 0.3127408 -0.23830687 0.2829756 0.23275867 -0.026824683 -0.00949972
-0.2930681 0.17755905 0.19615914 -0.10497807 0.33857408 -0.1067542 0.3519152 -0.36876786
0.05083733 0.025127562 0.046787195 0.011670136 -0.113887995 0.016888017 0.37413758 -0.38571307
-0.10940005 0.012065067 -0.019265972 -0.16768657 -0.11639383 -0.021938149 -0.34626853 0.15391603
0.45754 0.13451397 0.24935973 -0.14274767 0.32804027 0.1838268 -0.22221157 0.18967974
0.23775877 0.27866006 0.009377693 0.36892238 0.14671043 -0.0026169538 -0.017643718 -0.41092247
0.06352815 0.27808794 0.29388106 -0.19052084 -0.45965454 0.040902156 -0.009065696 -0.0006504026
-0.40958822 0.21090236 0.37749043 0.20227362 0.19650318 0.2686435 0.3155828 -0.13621649
0.0576742 0.12124368 -0.4663296 0.3276579 0.039597556 -0.01670549 -0.22248052 -0.23652679
-0.0076004905 -0.27798468 -0.029659273 0.12109526 0.30702877 0.14158529 -0.0701983 0.08377048
0.5577195 0.31437325 -0.0045991424 -0.19480659 -0.28084558 -0.3457933 0.377056 -0.19476031
0.01171238 -0.39793134 0.42062595 0.07794361 -0.5161859 0.18823293 0.051424846 -0.26979062
-0.14394516 0.43957084 -0.07657633 -0.08548931 0.1480199 -0.2914543 -0.44001856 0.24801986
-0.027458983 -0.37719062 -0.044851776 -0.13119525 -0.059208944 -0.14741114 -0.1451032 -0.06295002
-0.40691435 -0.05174244 -0.21562475 0.3217234 -0.17085879 -0.07865667 -0.008664244 0.1716568
0.0013164353 0.19299196 -0.027128318 0.08839538 0.16244252 0.16834973 -0.037173357 -0.15898775
0.23504314 0.11606556 0.15253122 0.021568839 -0.014365841 -0.28721514 0.03852449 0.14926413
-0.4987118 -0.29455385 0.17637378 -0.28865382 -0.27046326 -0.5079444 0.19152448 -0.055102002
0.3479053 -0.04254398 0.16715081 0.6784977 0.24942927 0.09114152 -0.013284641 0.09596373
0.2475048 0.1351007 0.20932923 -0.07016023 0.47530448 0.032437656 0.0801222 -0.08569797
-0.34964985 0.09243378 -0.39931166 0.2212375 0.3477661 0.11254308 0.33766413 -0.21941319
0.123952106 -0.36753422 0.16936326 -0.032544244 -0.12220823 0.26730898 0.01745013 0.10614514
0.008653098 -0.5386538 0.2277027 -0.58997804 -0.19391654 -0.35181537 0.022053985 -0.1382779
0.31119856 0.17478926 -0.08075524 0.22041036 0.021825463 -0.11498001 -0.0579739 0.12731327
0.05972793 0.19948903 0.031251255 0.23994613 0.2623394 0.25242922 -0.07112817 0.014736482
-0.28149897 0.0873445 0.3341297 -0.24227752 -0.036149528 -0.013181249 0.093027934 0.1874845
00000000: 40c8 e73d b901 63bc 42ff d8bd a638 c9bd
00000010: 29f7 903e 5656 5f3d 421c c5bd 2fa4 863c
00000020: 82f6 7cbe dce3 403e 6cf0 b33e 7a69 76bb
00000030: 128d 28be e649 aabc f461 ab3e 8a58 f2bd
00000040: 3926 773d daa4 1d3d d49c 5c3d ea14 b33d
00000050: 8c78 a63e 6b18 30be f6f7 58bd cda1 dcbe
00000060: 4ade d73d 02f3 113e 15ab 283e 8837 7bbd
00000070: 8479 3cbe ea8c 2cbe f0fa 703e dbac 54be
00000080: 9262 463e 7162 c23e 2375 bcbe 9bc9 f63d
00000090: 012a 9f3e c495 023f 9da0 99bc 40c1 ffbd
000000a0: d23f 443c 3f08 49bd 457a da3d e61e 27b7
000000b0: 2370 853e 5d1a 64be a1a1 c03d d4b5 6e3d
000000c0: 9016 0fbe f680 8b3d 901f a03e b706 74be
000000d0: 2ee2 903e 4a58 6e3e 70bf dbbc b7a4 1bbc
000000e0: 060d 96be 0ad2 353e f1dd 483e befe d6bd
000000f0: 9559 ad3e f2a1 dabd 3b2e b43e 24cf bcbe
00000100: ce3a 503d 51d8 cd3c eea3 3f3d 1934 3f3c
00000110: 1c3e e9bd bd58 8a3c f68e bf3e 2f7c c5be
00000120: 220d e0bd 8fac 453c acd3 9dbc 07b6 2bbe
00000130: e35f eebd a2b7 b3bc 1c4a b1be 2a9c 1d3e
00000140: af42 ea3e 08be 093e 2858 7f3e 722c 12be
00000150: e5f4 a73e 183d 3c3e 6e8b 63be 683b 423e
00000160: 0977 733e 88ac 8e3e e5a4 193c 65e3 bc3e
00000170: 423b 163e 3381 2bbb 8f89 90bc 6e64 d2be
00000180: 0c1b 823d 8b61 8e3e 9477 963e e517 43be
00000190: d757 ebbe 0589 273d 4988 14bc c87f 2aba
000001a0: 8cb5 d1be caf6 573e 6d46 c13e d120 4f3e
000001b0: 2138 493e a48b 893e 1294 a13e 567c 0bbe
000001c0: c83b 6c3d 9b4e f83d c1c2 eebe c7c2 a73e
000001d0: 0c31 223d f4d9 88bc efd1 63be 1434 72be
000001e0: 890d f9bb 0254 8ebe 01f8 f2bc cb00 f83d
000001f0: e032 9d3e bcfb 103e 20c4 8fbd db8f ab3d
00000200: b5c6 0e3f 88f5 a03e 67b4 96bb 617b 47be
00000210: feca 8fbe d20b b1be 7c0d c13e 3f6f 47be
00000220: 48e5 3f3c a8bd cbbe 495c d73e e6a0 9f3d
00000230: c224 04bf 22c0 403e dca2 523d ff21 8abe
00000240: 5c66 13be 6e0f e13e 0dd4 9cbd 0515 afbd
00000250: 8792 173e 7f39 95be 1d4a e1be ebf8 7d3e
00000260: a9f1 e0bc 211f c1be 7fb6 37bd 0c58 06be
00000270: 1485 72bd f2f2 16be ef95 14be f1eb 80bd
00000280: 1457 d0be e1ef 53bd bccc 5cbe eeb8 a43e
00000290: 9bf5 2ebe c016 a1bd 79f4 0dbc cdc6 2f3e
000002a0: 3d8c ac3a af9f 453e 353c debc a308 b53d
000002b0: 5557 263e df63 2c3e 1743 18bd afcd 22be
000002c0: 26af 703e c8b3 ed3d 2531 1c3e 22b1 b03c
000002d0: b45e 6bbc dd0d 93be dbcb 1d3d b2d8 183e
000002e0: 2757 ffbe c3cf 96be 549b 343e 6fca 93be
000002f0: 297a 8abe a508 02bf fe1e 443e a3b2 61bd
00000300: a520 b23e 9942 2ebd 9529 2b3e 06b2 2d3f
00000310: 636a 7f3e 68a8 ba3d d3a7 59bc a288 c43d
00000320: e671 7d3e d757 0a3e 675a 563e 2bb0 8fbd
00000330: 1c5b f33e 59dd 043d 1c17 a43d 6b82 afbd
00000340: 4e05 b3be ec4d bd3d 9472 ccbe 158c 623e
00000350: 660e b23e fc7c e63d 50e2 ac3e daad 60be
00000360: 9ada fd3d 722d bcbe 906d 2d3e 1d4d 05bd
00000370: 4f48 fabd b9dc 883e 93f3 8e3c a062 d93d
00000380: b9c5 0d3c 37e5 09bf e62a 693e cd08 17bf
00000390: 0f92 46be 2521 b4be 8faa b43c b998 0dbe
000003a0: 6b55 9f3e f5fb 323e 0163 a5bd 41b3 613e
000003b0: 50cb b23c a47a ebbd 0a76 6dbd 695e 023e
000003c0: 46a5 743d da46 4c3e 5101 003d 70b4 753e
000003d0: 5a51 863e 673e 813e a5ab 91bd 4971 713c
000003e0: a220 90be ace1 b23d 0c13 ab3e 9917 78be
000003f0: 8711 14bd 2af6 57bc 6e85 be3d f0fb 3f3e

model.0.bias f4 [128]
-0.07202668 0.09810262 -0.2212017 -0.28528416 -0.028108982 -0.012943903 0.07606996 -0.27793303
-0.2832348 -0.21531191 0.085565604 0.15805127 0.06798771 0.16353257 -0.2730754 -0.10234419
-0.2955046 0.06571155 0.08043185 0.43270943 -0.0150003135 -0.33926523 -0.13039544 -0.08231237
-0.036096733 0.2091386 0.24487466 0.26324707 -0.42145592 0.074839585 0.23701508 -0.1743811
0.2630985 -0.040572166 -0.4480925 -0.29645258 0.07874081 0.82377315 -0.27564386 0.07775223
-0.08091587 -0.0014678596 -0.5557433 0.15960877 -0.3914233 -0.17065275 0.09293747 0.022334764
-0.12649438 0.33943585 0.2920942 -0.06616914 -0.16467664 0.26261336 -0.14874697 -0.17944075
-0.07359116 0.2724006 -0.16696744 -0.27828965 0.21480715 -0.05469533 -0.36567494 -0.48907354
-0.11479827 0.25456694 -0.09078203 0.15441902 -0.13679855 0.35707563 -0.3963857 0.16937082
-0.47787264 -0.0049415966 -0.23025523 0.1051564 -0.019880006 -0.1955215 0.0031711264 -0.20616554
-0.12401189 0.08412261 0.07064167 -0.0735892 -0.025670921 0.10557658 0.20731533 -0.7749202
0.12996086 -0.086696036 -0.34034297 0.032459956 0.050118648 -0.051887244 0.38829085 -0.11312831
0.15654784 -0.28439376 -0.21425751 0.2388279 0.09121001 0.047896136 0.04148817 -0.09212212
-0.40238714 -0.07448203 -0.08867694 -0.101864986 -0.20037778 -0.14507304 0.16457295 -0.22468258
-0.14867349 -0.35295898 0.098339826 0.12001571 -0.066146925 0.49904066 0.11121559 -0.15329355
0.14012 -0.29795524 -0.47036654 -0.0014439696 0.15869792 -0.042670462 -0.28108948 0.033017926
00000000: b982 93bd 07ea c83d b382 62be c410 92be
00000010: cf44 e6bc aa12 54bc 91ca 9b3d 3d4d 8ebe
00000020: 2704 91be ba7a 5cbe 053d af3d 31d8 213e
00000030: 243d 8b3d 1575 273e 8ad0 8bbe d599 d1bd
00000040: 614c 97be c793 863d 74b9 a43d 178c dd3e
00000050: e0c3 75bc 2cb4 adbe 6286 05be 6393 a8bd
00000060: 2bda 13bd 6e28 563e 6cc0 7a3e 52c8 863e
00000070: 12c9 d7be 7f45 993d 15b4 723e f690 32be
00000080: d9b4 863e 002f 26bd 616c e5be a2c8 97be
00000090: dd42 a13d cce2 523f 3121 8dbe 903c 9f3d
000000a0: 38b7 a5bd 3265 c0ba 3145 0ebf 7b70 233e
000000b0: a368 c8be 98bf 2ebe 0056 be3d 65f7 b63c
000000c0: be87 01be 89ca ad3e 5f8d 953e b083 87bd
000000d0: fea0 28be 4275 863e 2051 18be 51bf 37be
000000e0: f6b6 96bd 1778 8b3e 83f9 2abe fb7b 8ebe
000000f0: 68f6 5b3e 3608 60bd bf39 bbbe d967 fabe
00000100: 5b1b ebbd 9956 823e eeeb b9bd 0520 1e3e
00000110: eb14 0cbe 9ed2 b63e 11f3 cabe 8b6f 2d3e
00000120: b9ab f4be 1eed a1bb 07c8 6bbe 3d5c d73d
00000130: 65db a2bc ca36 48be acd2 4f3b 0f1d 53be
00000140: f2f9 fdbd 7a48 ac3d 94ac 903d efb5 96bd
00000150: d34b d2bc 8938 d83d 784a 543e 2c61 46bf
00000160: 7614 053e b18d b1bd 6f41 aebe bbf4 043d
00000170: 3649 4d3d b887 54bd 0fce c63e d1af e7bd
00000180: 144e 203e 0f9c 91be 5266 5bbe 4d8f 743e
00000190: 50cc ba3d bd2e 443d 80ef 293d 86aa bcbd
000001a0: b005 cebe 098a 98bd 419c b5bd 979e d0bd
000001b0: d52f 4dbe 078e 14be d085 283e 3113 66be
000001c0: dd3d 18be 0ab7 b4be 6466 c93d ccca f53d
000001d0: 0a78 87bd 4282 ff3e 00c5 e33d fcf8 1cbe
000001e0: 9e7b 0f3e 978d 98be e2d3 f0be 9443 bdba
000001f0: b581 223e 39c7 2ebd f6ea 8fbe ce3d 073d

model.2.weight f4 [256, 128]
0.024475174 0.05158922 -0.15590405 -0.13900436 -0.20850362 -0.014801081 -0.37392557 0.25713068
0.040951088 -0.40117896 -0.4694883 0.15306096 -0.21364494 -0.025498621 -0.05096033 -0.13642034
-0.14989537 0.310825 -0.18771501 -0.08221146 0.0051173144 -0.0992059 -0.00016163822 -0.34419352
-0.11902848 -0.08020641 0.115694575 0.0641944 -0.10400318 0.015747553 -0.23353897 0.270666
-0.24315862 0.261522 0.17685837 0.009593311 0.15214504 -0.24045852 -0.22420615 -0.005102903
-0.17244609 -0.22436759 0.014782547 -0.10073344 -0.23882844 0.15134405 -0.07200009 -0.17210875
0.11549856 -0.22697997 0.15897377 -0.1562049 0.0029668072 -0.107849315 -0.36807415 -0.27912223
0.17456673 -0.005976426 -0.22096096 -0.036660213 -0.016671522 0.12765205 -0.21927364 0.13013746
-0.42747253 -0.20776726 -0.11250879 0.22241734 0.04962996 -0.1136451 -0.22002105 0.13561916
-0.18755017 0.06893343 -0.19862546 0.072435334 0.19147651 0.02594138 -0.21115121 0.035247605
0.07599536 -0.24196135 -0.02204822 0.0024931752 -0.11558183 -0.05999449 0.04187323 0.111707784
-0.016713241 0.26527083 0.31849632 0.1880977 -0.3436196 -0.039734945 -0.015560737 -0.44702497
-0.40811953 -0.21651699 0.027569342 -0.5087959 -0.00090390653 0.09373391 -0.024552625 0.04074027
0.010446016 -0.1144209 -0.19942248 -0.26407504 0.21739171 -0.10428075 -0.028144524 0.023655
0.20544764 -0.0871738 -0.34295484 -0.20095038 0.17975567 0.068618625 0.1485314 0.25996116
-0.22730938 -0.23599252 -0.39755553 0.036754195 0.02557894 0.17045504 0.051807273 0.18784763
-0.3742577 -0.2125178 0.20060095 0.111233175 -0.033240754 0.019839842 0.20959862 0.002814923
-0.15541711 -0.14583115 -0.10757131 0.13897002 -0.06823669 -0.0497467 0.04629766 0.13223341
-0.08449033 -0.16936126 0.08854657 -0.03243489 -0.047903556 0.04595953 -0.06968352 -0.052078176
-0.101743825 -0.32109487 0.003973887 0.17999151 -0.03838225 -0.07705258 -0.021072501 -0.124362215
-0.3640927 -0.15866058 -0.27258447 0.022837589 -0.09393641 -0.1767516 -0.35308692 -0.19228096
-0.11886492 -0.2746707 -0.24773194 -0.06991016 0.39897516 -0.15336566 0.046032436 0.19376719
-0.026234005 0.1297019 -0.060049284 -0.22937323 0.43389267 -0.10367574 -0.073012896 0.31530705
-0.29611954 -0.09142811 -0.20626198 0.14211614 -0.37263122 -0.043567646 0.04152689 0.017717494
-0.14856401 0.0019983435 -0.05684863 -0.3793654 0.11263135 -0.098400295 -0.114574544 -0.050449472
-0.12344052 0.058379512 -0.00295403 0.19547166 0.01728464 -0.03371596 -0.02531764 -0.05423588
0.118741706 0.06571235 -0.19244325 -0.07509125 -0.050774656 -0.1446098 -0.023072086 -0.059549958
-0.1640712 0.12925169 -0.12035312 -0.34786808 -0.2166644 0.1523253 -0.07005077 -0.14179271
-0.01640151 0.15511969 0.13220271 -0.10829027 0.058301833 -0.12582856 -0.050441343 -0.1657125
-0.16176952 -0.30389693 0.29501882 0.05225356 0.011146901 0.048607815 -0.11162151 -0.07314998
0.0037352066 0.09702394 -0.19843517 0.021132328 -0.11147736 0.040942613 -0.06594596 -0.4534431
-0.05450263 0.16570096 -0.06763581 -0.1675019 -0.1923504 -0.18444766 -0.3402462 0.04450933
00000000: 2980 c83c 384f 533d 50a5 1fbe 2957 0ebe
00000010: f981 55be 3c80 72bc 2c73 bfbe a2a6 833e
00000020: 54bc 273d 5467 cdbe c560 f0be 03bc 1c3e
00000030: bdc5 5abe 7ce2 d0bc c7bb 50bd c6b1 0bbe
00000040: 2c7e 19be 7424 9f3e 5d38 40be 7b5e a8bd
00000050: 25af a73b 772c cbbd 6e7d 29b9 223a b0be
00000060: 34c5 f3bd 4243 a4bd 47f1 ec3d 5b78 833d
00000070: 9fff d4bd 0301 813c d724 6fbe bc94 8a3e
00000080: 93fe 78be 36e6 853e 5c1a 353e 432d 1d3c
00000090: e9cb 1b3e c23a 76be 4c96 65be 4136 a7bb
000000a0: b595 30be 9ec0 65be 7f32 723c 554d cebd
000000b0: 718f 74be eff9 1a3e c874 93bd 473d 30be
000000c0: 828a ec3d 706d 68be 05ca 223e 2df4 1fbe
000000d0: c46e 423b 1ae0 dcbd 3774 bcbe 1ce9 8ebe
000000e0: 9fc1 323e e5d5 c3bb 9743 62be 0529 16bd
000000f0: b792 88bc 38b7 023e 4589 60be c142 053e
00000100: aedd dabe f1c0 54be 026b e6bd 5fc1 633e
00000110: c948 4b3d c3be e8bd 334d 61be c0df 0a3e
00000120: 270d 40be f82c 8d3d 7964 4bbe fa58 943d
00000130: 6b12 443e 0483 d43c 0638 58be cb5f 103d
00000140: 75a3 9b3d b7c4 77be 789e b4bc 8a64 233b
00000150: 2bb6 ecbd c8bc 75bd 4483 2b3d 0dc7 e43d
00000160: 35ea 88bc 94d1 873e f311 a33e af9c 403e
00000170: e9ee afbe 1cc1 22bd 76f2 7ebc 75e0 e4be
00000180: 0bf5 d0be a1b6 5dbe 1ad9 e13c 7340 02bf
00000190: 24f4 6cba 90f7 bf3d 9622 c9bc 45df 263d
000001a0: c425 2b3c 8155 eabd 6835 4cbe d834 87be
000001b0: ef9b 5e3e 2591 d5bd 588f e6bc 21c8 c13c
000001c0: de60 523e 2d88 b2bd c797 afbe f0c5 4dbe
000001d0: df11 383e ec87 8c3d 9e18 183e a119 853e
000001e0: cac3 68be 06a8 71be 668c cbbe 918b 163d
000001f0: ed8a d13c c48b 2e3e dd33 543d 215b 403e
00000200: b59e bfbe 449e 59be 566a 4d3e 38ce e33d
00000210: 7527 08bd 2a87 a23c 05a1 563e 927a 383b
00000220: aa25 1fbe c354 15be 594e dcbd 284e 0e3e
00000230: adbf 8bbd 32c3 4bbd 9da2 3d3d 3268 073e
00000240: 4409 adbd 0a6d 2dbe e757 b53d 72da 04bd
00000250: 8536 44bd 0f40 3c3d 3cb6 8ebd ed4f 55bd
00000260: 115f d0bd 8c66 a4be 6137 823b b24f 383e
00000270: b536 1dbd becd 9dbd 3da0 acbc 9eb1 febd
00000280: 5c6a babe eb77 22be 3190 8bbe e515 bb3c
00000290: bc61 c0bd 5ffe 34be cfc7 b4be 4de5 44be
000002a0: 746f f3bd a3a1 8cbe 71ad 7dbe 0f2d 8fbd
000002b0: 7946 cc3e e30b 1dbe 828c 3c3d e86a 463e
000002c0: b2e8 d6bc 93d0 043e 3df6 75bd d1e0 6abe
000002d0: 2e27 de3e f253 d4bd c987 95bd ed6f a13e
000002e0: fb9c 97be a93e bbbd 5736 53be e586 113e
000002f0: 85c9 bebe fd73 32bd 1a18 2a3d 4724 913c
00000300: 2a21 18be a4f6 023b 1cda 68bd 2f3c c2be
00000310: 44ab e63d 1886 c9bd 0fa6 eabd 1ba4 4ebd
00000320: 62ce fcbd 5b1f 6f3d 6698 41bb b929 483e
00000330: 8498 8d3c bf19 0abd f066 cfbc 7126 5ebd
00000340: da2e f33d 3294 863d d80f 45be 71c9 99bd
00000350: 16f9 4fbd 9714 14be ac01 bdbc a8ea 73bd
00000360: 4802 28be 8e5a 043e b27b f6bd c41b b2be
00000370: 46dd 5dbe 2afb 1b3e c776 8fbd 1c32 11be
00000380: 765c 86bc b2d7 1e3e 2660 073e 4ac7 ddbd
00000390: e7cd 6e3d 34d9 00be 959b 4ebd 8ab0 29be
000003a0: e9a6 25be 6198 9bbe b50c 973e d407 563d
000003b0: 7ea1 363c fd18 473d d199 e4bd a8cf 95bd
000003c0: 5eca 743b 7db4 c63d 9732 4bbe b41d ad3c
000003d0: 3e4e e4bd 71b3 273d ad0e 87bd b229 e8be
000003e0: 263e 5fbd 83ad 293e a584 8abd 9e85 2bbe
000003f0: 81f7 44be d9df 3cbe c034 aebe 6a4f 363d

model.2.bias f4 [256]
-0.08877402 -0.04085465 -0.074837744 -0.018086039 -0.0015326823 -0.001708479 0.028052751 -0.05115696
-0.11360473 -0.072197475 -0.09316758 -0.17220491 -0.052126 0.038474865 0.052556653 -0.13889986
-0.014932659 0.19211596 0.07801622 0.06771857 0.0076856283 0.013130825 -0.06639299 0.01085215
-0.12409858 0.082429186 0.041910723 -0.022612214 0.02820945 0.008215085 0.021122554 0.079668626
0.08538439 0.09368722 0.09679292 -0.19842002 0.06507269 -0.09952824 0.12935993 0.010572927
0.034520872 0.03829795 -0.06565145 -0.13130774 0.0066471724 0.014162446 -0.06637046 -0.18433766
0.06162282 -0.12973635 0.14364159 -0.12379995 -0.05764068 0.054648705 -0.10141874 -0.10679577
-0.095980175 -0.04836993 0.07280887 -0.0319832 0.073400795 0.12706944 -0.075370975 -0.13398953
-0.09115817 -0.10216716 0.15500896 0.047851946 -0.039437443 0.009093653 0.002161578 0.07236755
0.04476735 0.13877481 0.025600815 -0.034580965 0.010696563 -0.022588275 -0.12132991 -0.06384252
0.027609922 -0.11062665 -0.057084445 -0.1631187 -0.06090782 -0.065800995 0.18235075 0.12317851
-0.0945912 0.04296822 0.11816446 -0.02521622 -0.16532642 -0.10797328 -0.19547756 -0.18263562
-0.038920857 0.1977227 0.07132085 -0.031504452 -0.084657304 -0.1734461 -0.09605415 -0.036612604
0.09034457 0.09782177 0.091023214 0.052328613 -0.07429584 0.17954227 0.057396173 -0.13386877
0.14682885 -0.05551428 -0.22632286 0.02750475 0.054037146 -0.042505953 -0.027424062 -0.040603653
-0.16115439 -0.04315334 -0.12708497 -0.06936191 0.10848433 -0.021371989 -0.049259957 -0.09725495
-0.15795553 -0.016354704 -0.00951969 0.037256405 -0.2399144 0.14735086 -0.018734822 -0.08089199
0.012021605 0.19618167 -0.12431889 -0.00021203833 0.11260527 -0.05714879 0.06771626 -0.076811485
-0.20903675 -0.15970889 0.04924407 0.15356612 0.09002091 -0.08483615 -0.025370171 0.24831462
-0.1240548 0.035774264 -0.037461527 -0.11621692 -0.13169001 -0.06420993 -0.0013874361 -0.08886169
0.068862714 0.075110205 -0.17660289 0.07099714 -0.083263785 0.092680156 0.08342414 -0.0850545
0.060657848 0.037564572 -0.11672947 -0.021497373 0.07684576 -0.11396099 -0.0063335095 -0.21516168
-0.0037156022 -0.11170909 -0.15415753 0.05063764 -0.116588734 -0.2041005 0.03164954 -0.013183843
-0.10776406 -0.04861971 -0.0012032094 -0.038502704 0.013929061 0.072447054 0.060006026 0.1204713
0.15584512 -0.05864523 -0.1023521 -0.03411572 -0.14942545 -0.11635435 -0.08763844 -0.095417924
0.008415117 0.06746016 0.048382744 -0.124372646 -0.010724597 0.11844255 -0.040171076 0.0025222586
0.117978096 -0.01365613 0.09983037 0.060341746 0.0061483835 0.02770982 -0.053016532 -0.02345495
0.09921342 -0.032053676 0.02319789 0.007261479 -0.031372342 0.08053847 -0.13421899 0.08167057
-0.0033093719 0.07055871 -0.024559973 0.13325524 -0.045843627 0.03869358 -0.21224162 -0.09451345
-0.013054887 -0.0138113815 0.007184075 -0.11937107 -0.06147147 0.0055856723 0.050780676 0.04828716
-0.096747704 0.085961595 -0.06632686 -0.07775115 0.007578679 0.04293088 0.058913022 0.053863015
0.12400624 0.15226229 -0.0908119 0.038547866 -0.031209081 0.01005073 -0.027007373 -0.03720238
00000000: 27cf b5bd 3557 27bd 8844 99bd 2c29 94bc
00000010: 49e4 c8ba 0bef dfba e2ce e53c f689 51bd
00000020: 99a9 e8bd 45dc 93bd a5ce bebd 7c56 30be
00000030: 1382 55bd d297 1d3d a545 573d c43b 0ebe
00000040: 1da8 74bc 0cba 443e f8c6 9f3d 09b0 8a3d
00000050: b9d7 fb3b ac22 573c 0cf9 87bd 37cd 313c
00000060: 6527 febd a2d0 a83d 94aa 2b3d 403d b9bc
00000070: 8117 e73c 9098 063c 3509 ad3c 4e29 a33d
00000080: 03de ae3d 16df bf3d 5e3b c63d 9e2e 4bbe
00000090: d544 853d 76d5 cbbd ee76 043e 123a 2d3c
000000a0: c265 0d3d 50de 1c3d 4474 86bd 8975 06be
000000b0: 86d0 d93b 9b09 683c 3ced 87bd 03c3 3cbe
000000c0: 3668 7c3d 9bd9 04be c816 133e d48a fdbd
000000d0: a218 6cbd 52d7 5f3d a1b4 cfbd beb7 dabd
000000e0: 4191 c4bd 8c1f 46bd d11c 953d d100 03bd
000000f0: 2853 963d 7e1e 023e 195c 9abd 8d34 09be
00000100: 22b1 babd 043d d1bd abba 1e3e 6700 443d
00000110: 2889 21bd 8cfd 143c 43a9 0d3b 7035 943d
00000120: f85d 373d fc1a 0e3e cdb8 d13c c5a4 0dbd
00000130: a340 2f3c 0c0b b9bc d17b f8bd debf 82bd
00000140: 342e e23c 3a90 e2bd 61d1 69bd 9708 27be
00000150: 7a7a 79bd acc2 86bd 28ba 3a3e 0445 fc3d
00000160: 08b9 c1bd 72ff 2f3d 3500 f23d 3f92 cebc
00000170: 544b 29be 1821 ddbd 452b 48be d504 3bbe
00000180: 7a6b 1fbd d277 4a3e aa10 923d d00a 01bd
00000190: cf60 adbd db9b 31be 0ab8 c4bd 19f7 15bd
000001a0: 9306 b93d c856 c83d 616a ba3d 8756 563d
000001b0: 6b28 98bd eed9 373e 4018 6b3d e514 09be
000001c0: 4d5a 163e f162 63bd 2ec1 67be a451 e13c
000001d0: 0e56 5d3d b91a 2ebd 6da8 e0bc 0450 26bd
000001e0: a805 25be 8fc1 30bd 9022 02be 9e0d 8ebd
000001f0: 082d de3d 4f14 afbc cfc4 49bd 9a2d c7bd
00000200: 18bf 21be 4dfa 85bc 79f8 1bbc 2c9a 183d
00000210: 1fac 75be 25e3 163e c579 99bc b3aa a5bd
00000220: 44f6 443c d9e3 483e e79a febd 9b56 5eb9
00000230: 989d e63d da14 6abd d3ae 8a3d 574f 9dbd
00000240: bb0d 56be ba8a 23be 26b4 493d 7040 1d3e
00000250: e25c b83d 93be adbd 1bd5 cfbc 3046 7e3e
00000260: 7110 febd 0988 123d 4271 19bd 2303 eebd
00000270: bfd9 06be 7f80 83bd a1da b5ba 1efd b5bd
00000280: e507 8d3d 61d3 993d 63d7 34be f366 913d
00000290: 3486 aabd 18cf bd3d 47da aa3d 0e31 aebd
000002a0: 5d74 783d 4fdd 193d dc0f efbd 421b b0bc
000002b0: 4f61 9d3d 6164 e9bd 5489 cfbb 5853 5cbe
000002c0: 7681 73bb bcc7 e4bd 79db 1dbe 6a69 4f3d
000002d0: 13c6 eebd b9ff 50be f3a2 013d 0c01 58bc
000002e0: 67b3 dcbd 7625 47bd 02b5 9dba 03b5 1dbd
000002f0: b736 643c 1f5f 943d e1c8 753d a8b9 f63d
00000300: dd95 1f3e fb35 70bd fa9d d1bd edbc 0bbd
00000310: fc02 19be 304b eebd c87b b3bd 796a c3bd
00000320: 8fdf 093c 8d28 8a3d fc2c 463d 16b7 febd
00000330: 38b6 2fbc 0292 f23d 6d8a 24bd 7a4c 253b
00000340: 809e f13d f6bd 5fbc dd73 cc3d e828 773d
00000350: 6178 c93b b4ff e23c dd27 59bd 9824 c0bc
00000360: 6830 cb3d b74a 03bd 8009 be3c b3f1 ed3b
00000370: 4980 00bd 5af1 a43d b470 09be e642 a73d
00000380: 0ce2 58bb 1681 903d ff31 c9bc 1074 083e
00000390: 87c6 3bbd 297d 1e3d de55 59be 4590 c1bd
000003a0: 2ae4 55bc 2249 62bc 6468 eb3b d278 f4bd
000003b0: 82c9 7bbd 0408 b73b 66ff 4f3d c2c8 453d
000003c0: a923 c6bd a20c b03d 60d6 87bd ff3b 9fbd
000003d0: 9156 f83b 4ad8 2f3d c84e 713d 779f 5c3d
000003e0: fcf6 fd3d a5ea 1b3e 97fb b9bd 5ee4 1d3d
000003f0: 30aa ffbc d1ab 243c 913e ddbc 8661 18bd

model.4.weight f4 [784, 256]
-0.019973278 0.048790522 -0.10224909 0.06681685 -0.013039034 0.06387641 -0.017845897 0.05948612
0.19998597 -0.029872652 0.085979275 0.042639118 -0.09567006 0.09683585 0.12303715 0.024070473
0.055805463 0.002894713 0.034074582 -0.04991441 -0.0070010987 0.009178119 -0.014312719 -0.025555527
0.017872628 0.15759723 -0.041461393 -0.018349957 0.06690574 0.062171444 -0.07618759 -0.11215271
0.0982154 0.04419787 -0.014663424 -0.056168333 0.07104556 0.020754786 0.048327267 -0.015024345
0.014141672 -0.0877188 -0.012495258 -0.15131801 -0.12691437 -0.01572962 0.018432 0.028963728
-0.029653719 -0.052681237 -0.08131851 0.10784843 0.10785681 0.15739487 -0.028321255 -0.058739446
-0.08874588 0.04247731 -0.03970246 0.050042547 0.10871636 -0.058821674 0.041974697 -0.05447166
-0.022251392 0.18943891 0.051809505 -0.06933457 -0.09149699 0.024355214 -0.04785045 0.049264498
-0.022919014 0.18061522 0.08067139 -0.01953747 0.15258284 -0.043348193 0.006950595 0.057624664
0.03418916 -0.014550556 0.009043263 -0.07613449 0.037113987 -0.13215922 -0.0040439097 0.1679262
-0.090281 0.043839015 -0.07999424 -0.12189236 0.018615777 0.14127614 -0.10311956 0.014269861
-0.0011251312 0.20291501 -0.091410525 0.051541686 0.05531788 0.13129672 0.0150568215 -0.018035786
-0.07089383 0.017264543 0.051906444 -0.024691863 -0.054682326 -0.078500025 -0.052489355 0.037241463
0.053379357 0.067606 0.005428575 0.06835665 0.05513679 0.037097227 -0.05382913 0.039106306
0.040462457 0.1583508 -0.037706032 0.07152312 0.094885 -0.06782702 0.024958467 -0.03372186
0.046541933 0.054131974 -0.07183595 0.012401215 0.0028058677 0.055266265 0.02660239 -0.062132023
-0.14316098 0.088741474 -0.03222575 -0.006416665 -0.0025319797 0.07017052 0.1711861 -0.08192649
-0.010044498 -0.0119606 0.00023383801 -0.04583588 -0.01866169 -0.1092323 0.10743753 0.03625816
0.055455368 -0.0966053 0.07645331 0.0566084 0.04333532 -0.005087034 -0.077734925 -0.08443453
0.026784638 -0.047292203 -0.032153044 0.0034535013 -0.0064488687 -0.025274118 -0.08562418 -0.16133195
-0.017026443 0.11848351 0.014604802 -0.03685519 0.1146081 0.021794382 -0.030423403 -0.09106863
0.12720515 -0.009701664 -0.032390255 0.009118981 0.053873803 0.065351725 0.15448904 0.13193372
0.0015526301 -0.016245833 -0.014009647 0.11734994 0.016940933 -0.0010601811 0.07201031 -0.058080334
-0.044289015 -0.036125857 0.07481832 -0.016645227 -0.09104766 0.04047644 -0.067734644 0.014177833
0.0066903383 -0.0018067793 -0.08329999 -0.11671781 -0.06576169 -0.074454874 -0.09579221 -0.027006546
0.022098122 0.018353518 0.045698453 0.0043054577 -0.05140678 0.021616513 -0.019089542 0.092393965
0.1426755 0.06618145 0.029873472 0.06684403 0.06500764 0.08955359 0.0789822 0.05960984
-0.015038401 -0.04262821 -0.044424675 0.014777095 0.1121394 -0.05894243 -0.023150606 0.010863058
0.00990816 0.04801585 0.045749433 0.035754304 0.035331722 -0.056013647 0.040420532 -0.06592881
0.0057166624 0.022082986 -0.057829127 -0.034469 0.043711547 -0.080442324 0.09981556 0.035927825
0.13566698 -0.07267631 0.011916771 -0.10534696 0.0056620836 -0.07589776 0.008658125 -0.0686172
00000000: 009f a3bc 92d8 473d f967 d1bd 46d7 883d
00000010: aca1 55bc a3d1 823d 8f31 92bc b8a7 733d
00000020: 1fc9 4c3e 7eb7 f4bc e715 b03d 5ba6 2e3d
00000030: aaee c3bd e051 c63d e7fa fb3d 712f c53c
00000040: 4594 643d 3ab5 3d3b ca91 0b3d 0d73 4cbd
00000050: 7969 e5bb d25f 163c e57f 6abc d359 d1bc
00000060: 9e69 923c 2b61 213e 6cd3 29bd a652 96bc
00000070: e005 893d 7ca7 7e3d 3d08 9cbd 52b0 e5bd
00000080: 2825 c93d d308 353d dc3e 70bc c410 66bd
00000090: 5680 913d f105 aa3c d0f2 453d ac28 76bc
000000a0: 79b2 673c eaa5 b3bd e9b8 4cbc 1cf3 1abe
000000b0: d7f5 01be 67db 80bc b5fe 963c 5745 ed3c
000000c0: 5bec f2bc 48c8 57bd 528a a6bd a3df dc3d
000000d0: 08e4 dc3d 1f2c 213e fa01 e8bc c698 70bd
000000e0: 66c0 b5bd b0fc 2d3d 0c9f 22bd 6af9 4c3d
000000f0: afa6 de3d ffee 70bd a9ed 2b3d ad1d 5fbd
00000100: 8d48 b6bc 46fc 413e 3436 543d 48ff 8dbd
00000110: c662 bbbd 9684 c73c d5fe 43bd 92c9 493d
00000120: a8c0 bbbc 32f3 383e 0b37 a53d 0b0d a0bc
00000130: ad3e 1c3e e08d 31bd d1c1 e33b d707 6c3d
00000140: ef09 0c3d 7565 6ebc 322a 143c 66ec 9bbd
00000150: d604 183d bf54 07be c682 84bb d9f4 2b3e
00000160: 3fe5 b8bd 8a90 333d 05d4 a3bd b4a2 f9bd
00000170: 1d80 983c b1aa 103e 5930 d3bd 23cc 693c
00000180: 2379 93ba f4c8 4f3e 7135 bbbd 601d 533d
00000190: 0095 623d a672 063e e3b0 763c c9bf 93bc
000001a0: c930 91bd 5f6e 8d3c da9b 543d 9746 cabc
000001b0: 93fa 5fbd 9fc4 a0bd 14ff 56bd 818a 183d
000001c0: 50a4 5a3d 0475 8a3d 30e2 b13b 92fe 8b3d
000001d0: 1dd7 613d 43f3 173d ef7b 5cbd ef2d 203d
000001e0: f6bb 253d b626 223e a471 1abd b77a 923d
000001f0: 1153 c23d e5e8 8abd b375 cc3c ef1f 0abd
00000200: c1a2 3e3d 7db9 5d3d ba1e 93bd 772e 4b3c
00000210: a6e2 373b e15e 623d 41ed d93c 267e 7ebd
00000220: cb98 12be 17be b53d 26ff 03bd e342 d2bb
00000230: 92ef 25bb 90b5 8f3d 694b 2f3e 13c9 a7bd
00000240: ae91 24bc 64f6 43bc 6a32 7539 67be 3bbd
00000250: 67e0 98bc 2fb5 dfbd 3508 dc3d 7083 143d
00000260: 2b25 633d 00d9 c5bd 8e93 9c3d 36de 673d
00000270: 6080 313d 22b1 a6bb 7d33 9fbd 03ec acbd
00000280: 756b db3c 78b5 41bd e9b2 03bd 2354 623b
00000290: 0851 d3bb ab0b cfbc bb5b afbd 3434 25be
000002a0: 0a7b 8bbc 7ca7 f23d fb48 6f3c 78f5 16bd
000002b0: a7b7 ea3d 228a b23c 803a f9bc 3182 babd
000002c0: 1142 023e baf3 1ebc a5ab 04bd c767 153c
000002d0: c7aa 5c3d 20d7 853d 6032 1e3e a219 073e
000002e0: 9f81 cb3a fb15 85bc b888 65bc 2a55 f03d
000002f0: b6c7 8a3c c6f5 8aba 247a 933d a5e5 6dbd
00000300: 6668 35bd b5f8 13bd 593a 993d 925b 88bc
00000310: 3277 babd a0ca 253d 76b8 8abd 244a 683c
00000320: a03a db3b 74d1 ecba 2f99 aabd bf09 efbd
00000330: 11ae 86bd cc7b 98bd b52e c4bd d53c ddbc
00000340: 1f07 b53c 1e5a 963c 4d2e 3b3d cc14 8d3b
00000350: ea8f 52bd 1d15 b13c ac61 9cbc 0c39 bd3d
00000360: 8719 123e 248a 873d 36b9 f43c 86e5 883d
00000370: ba22 853d df67 b73d 6bc1 a13d 7329 743d
00000380: a063 76bc eb9a 2ebd a6f6 35bd a11b 723c
00000390: 57a9 e53d 9e6d 71bd 57a6 bdbc f8fa 313c
000003a0: d655 223c 45ac 443d c263 3b3d 1b73 123d
000003b0: ffb7 103d 916e 65bd 0090 253d af05 87bd
000003c0: d752 bb3b 61e7 b43c 3cde 6cbd 5e2f 0dbd
000003d0: e10a 333d f2be a4bd 1a6c cc3d 0e29 133d
000003e0: 49ec 0a3e 51d7 94bd 8f3e 433c 26c0 d7bd
000003f0: 0089 b93b 4970 9bbd cfda 0d3c 2d87 8cbd

model.4.bias f4 [784]
-0.116294704 -0.08684411 -0.17556578 -0.21775547 -0.09597912 -0.104120955 -0.1853332 -0.14801817
-0.060628034 -0.16590784 -0.13521709 -0.10257983 -0.04919753 -0.17580378 -0.070090294 -0.127196
-0.13002987 -0.07073107 -0.09854776 -0.086455226 -0.085031666 -0.13548678 -0.1253536 -0.12564248
-0.072295256 -0.1674002 -0.0709076 -0.13593715 -0.075702906 -0.08564233 -0.1753235 -0.05554455
-0.08802355 -0.058280334 -0.07499658 -0.072277375 -0.061405025 -0.070002556 -0.15561129 -0.14250697
-0.039154742 -0.1406546 -0.06395415 -0.17314908 -0.06090519 -0.0998734 -0.19097178 -0.16459776
-0.12534724 -0.07347519 -0.108317405 -0.11048778 -0.1774426 -0.05019902 -0.16791792 -0.10640731
-0.106264904 -0.11785271 -0.15021442 -0.11569122 -0.1422415 -0.09046719 -0.14934336 -0.07813175
-0.09955121 -0.11034713 -0.11325116 -0.08142282 -0.124364115 -0.17277221 -0.13429134 -0.098392926
-0.16662262 -0.11045129 -0.06070058 -0.082676165 -0.100644484 -0.072088026 -0.17825958 -0.08077609
-0.13083382 -0.17150073 -0.13634048 -0.1574824 -0.06856988 -0.09262973 -0.13274962 -0.100035585
-0.105906025 -0.07727239 -0.15339574 -0.11309481 -0.13189502 -0.123017706 -0.1273864 -0.21990639
-0.24463397 -0.16749407 -0.23420249 -0.18418206 -0.17531945 -0.22373341 -0.13376674 -0.22331223
-0.14111766 -0.15319209 -0.15930313 -0.16535212 -0.07180299 -0.1144682 -0.0684593 -0.14014672
-0.15078047 -0.16142182 -0.06857859 -0.05160112 -0.099334955 -0.13345209 -0.01461626 -0.031890366
0.00054773 -0.061147243 -0.090622924 -0.053769637 -0.07623707 -0.06285213 0.027397286 -0.09084652
-0.10823007 -0.0684911 -0.13457325 -0.04786709 -0.07962444 -0.060405172 -0.16396189 -0.116026126
-0.14924547 -0.104093276 -0.08191783 -0.18069066 -0.123956606 -0.075575024 -0.06538711 -0.088459656
-0.096464045 -0.10214221 -0.023934778 -0.05221267 -0.039203946 -0.12747675 -0.021408804 -0.031265847
-0.07421047 -0.06126172 -0.08211084 0.0038693468 -0.039312802 0.046357587 0.09265745 0.043399923
-0.08186548 -0.20045592 -0.22580577 -0.17052548 -0.1658879 -0.10043981 -0.10799486 -0.15741368
-0.18702994 -0.06317209 -0.101929486 -0.12075676 -0.021828393 -0.09576259 -0.054499257 -0.00904508
-0.14444539 -0.061562635 -0.11264677 -0.04246586 0.025810272 0.0122271925 -0.013737491 0.03130935
-0.02167158 -0.022668831 0.0063579786 0.01256217 -0.06355701 -0.17079715 -0.11078284 -0.17694074
-0.10464561 -0.123050764 -0.14921843 -0.1978273 -0.13772936 -0.16141434 -0.08334384 -0.081073776
-0.0027978406 -0.08836521 -0.09459838 -0.090121955 -0.10694482 -0.05401796 -0.012272635 0.034034524
0.004145168 -0.006828399 0.0691228 0.03234804 0.02206821 0.017747208 0.07517311 0.0283564
-0.008952526 -0.1251456 -0.16702774 -0.20817074 -0.14139792 -0.23338993 -0.12321037 -0.08628455
-0.1646611 -0.14835949 -0.091205135 -0.07539264 -0.12155288 -0.13165443 -0.178908 -0.051704906
-0.102071665 0.04412886 0.00063499855 0.013514681 0.017133031 -0.028778268 0.009607818 -0.08729238
-0.009135628 0.13507839 0.036171462 0.06021764 0.0399027 0.04990532 -0.12582587 -0.15529196
-0.20274809 -0.22734784 -0.05487724 -0.069403924 -0.09266897 -0.15714116 -0.11910796 -0.11455438
00000000: eb2b eebd 53db b1bd 84c7 33be 4afb 5ebe
00000010: b390 c4bd 5e3d d5bd fdc7 3dbe 1392 17be
00000020: 1a55 78bd bfe3 29be 5976 0abe 6015 d2bd
00000030: 5983 49bd e805 34be 808b 8fbd ab3f 02be
00000040: 8d26 05be 74db 90bd 68d3 c9bd 700f b1bd
00000050: 1525 aebd 0cbd 0abe b25c 00be 6ca8 00be
00000060: 890f 94bd f56a 2bbe 0138 91bd 1c33 0bbe
00000070: 200a 9bbd 3f65 afbd 0188 33be af82 63bd
00000080: b145 b4bd 5cb7 6ebd cf97 99bd 2906 94bd
00000090: d683 7bbd 805d 8fbd 9158 1fbe 59ed 11be
000000a0: b960 20bd c207 10be 65fa 82bd fe4d 31be
000000b0: b877 79bd 6d8a ccbd 1b8e 43be 518c 28be
000000c0: 075b 00be 297a 96bd 84d5 ddbd 6b47 e2bd
000000d0: 83b3 35be 7d9d 4dbd adf2 2bbe 13ec d9bd
000000e0: 6aa1 d9bd c35c f1bd cfd1 19be 85ef ecbd
000000f0: c1a7 11be dd46 b9bd 77ed 18be 8a03 a0bd
00000100: 81e1 cbbd adfd e1bd 39f0 e7bd 02c1 a6bd
00000110: 9db2 febd 33eb 30be ab83 09be 3b82 c9bd
00000120: 1f9f 2abe 4934 e2bd 2ca1 78bd 1f52 a9bd
00000130: b21e cebd e3a2 93bd ae89 36be ef6d a5bd
00000140: 4df9 05be e39d 2fbe d79c 0bbe 1143 21be
00000150: 5e6e 8cbd a8b4 bdbd 84ef 07be 75df ccbd
00000160: 42e5 d8bd fd40 9ebd c613 1dbe 409e e7bd
00000170: 7d0f 07be b5f0 fbbd 9571 02be 242f 61be
00000180: 5481 7abe 9183 2bbe c7d2 6fbe 399a 3cbe
00000190: f186 33be 5f1a 65be 26fa 08be f6ab 64be
000001a0: 2681 10be 63de 1cbe 5c20 23be 1152 29be
000001b0: 720d 93bd 4e6e eabd 6434 8cbd 9f82 0fbe
000001c0: 3266 1abe c34b 25be ef72 8cbd b25b 53bd
000001d0: 2070 cbbd aaa7 08be 0a79 6fbc 799f 02bd
000001e0: 8a95 0f3a 8875 7abd 8398 b9bd 8d3d 5cbd
000001f0: 2e22 9cbd 9eb8 80bd 4670 e03c be0d babd
00000200: baa7 ddbd 1045 8cbd 92cd 09be 4810 44bd
00000210: 2312 a3bd 6a6b 77bd a0e5 27be 1b9f edbd
00000220: ced3 18be db2e d5bd 89c4 a7bd f906 39be
00000230: f6dc fdbd 14c7 9abd ade9 85bd 562a b5bd
00000240: f18e c5bd ef2f d1bd de12 c4bc f4dc 55bd
00000250: 5194 20bd 4489 02be 8461 afbc 9e10 00bd
00000260: a9fb 97bd 92ed 7abd ba29 a8bd de94 7d3b
00000270: 7606 21bd 74e1 3d3d 30c3 bd3d 1ec4 313d
00000280: 17a9 a7bd 5144 4dbe a139 67be 3b9e 2ebe
00000290: 85de 29be 63b3 cdbd 692c ddbd 0d31 21be
000002a0: c784 3fbe 5e60 81bd 68c0 d0bd 524f f7bd
000002b0: 75d1 b2bc 2d1f c4bd 9d3a 5fbd d131 14bc
000002c0: 7ee9 13be 1a29 7cbd 5ab3 e6bd aef0 2dbd
000002d0: 1070 d33c 9054 483c 3713 61bc 3c3e 003d
000002e0: 9988 b1bc fcb3 b9bc 9756 d03b 8fd1 4d3c
000002f0: 2d2a 82bd 73e5 2ebe 1de2 e2bd f42f 35be
00000300: 7050 d6bd 0a02 fcbd b7cc 18be 3d93 4abe
00000310: ed08 0dbe cd49 25be 2db0 aabd 020a a6bd
00000320: fa5b 37bb d2f8 b4bd ccbc c1bd dc91 b8bd
00000330: e305 dbbd f041 5dbd 2913 49bc c967 0b3d
00000340: 30d4 873b c3c0 dfbb 4190 8d3d 617f 043d
00000350: 64c8 b43c 9862 913c 5cf4 993d ae4b e83c
00000360: 9ead 12bc 2b26 00be 5209 2bbe b62a 55be
00000370: 9eca 10be c5fd 6ebe b855 fcbd f4b5 b0bd
00000380: eb9c 28be 8deb 17be c2c9 babd 7567 9abd
00000390: b7f0 f8bd 6bd0 06be a933 37be 86c8 53bd
000003a0: f30a d1bd 77c0 343d 0876 263a ae6c 5d3c
000003b0: 925a 8c3c 67c0 ebbc 1c6a 1d3c 59c6 b2bd
000003c0: 9aad 15bc fd51 0a3e 8728 143d c6a6 763d
000003d0: 0371 233d 8569 4c3d 7fd8 00be db04 1fbe
000003e0: 329d 4fbe dfcd 68be f5c6 60bd a523 8ebd
000003f0: 3bc9 bdbd 9de9 20be e0ee f3bd 7d9b eabd
